…
			  'DAT_ASCII_XAUUSD_M1_201904.csv',
			  'DAT_ASCII_XAUUSD_M1_201905.csv',
			  'DAT_ASCII_XAUUSD_M1_201906.csv']
TIME_RANGE = 60
INTERVAL_TO_PRINT = 5 # Must be a factor of TIME_RANGE
PERIOD_TO_PREDICT = 5
SMA = [20, 50, 100] #
FIGSIZE = (2,1)
PCT_BUY = 0 #Pct will be added
RESAMPLE_TIME = '3Min'

Please input the file name of the test model
2020-01-06_0705--60-SEQ-5-PRED
Model: "sequential_5"
_________________________________________________________________
Layer (type)                 Output Shape              Param #   
=================================================================
conv2d_12 (Conv2D)           (None, 98, 198, 32)       320       
_________________________________________________________________
activation_20 (Activation)   (None, 98, 198, 32)       0         
_________________________________________________________________
max_pooling2d_12 (MaxPooling (None, 49, 99, 32)        0         
_________________________________________________________________
dropout_12 (Dropout)         (None, 49, 99, 32)        0         
_________________________________________________________________
conv2d_13 (Conv2D)           (None, 47, 97, 64)        18496     
_________________________________________________________________
max_pooling2d_13 (MaxPooling (None, 23, 48, 64)        0         
_________________________________________________________________
activation_21 (Activation)   (None, 23, 48, 64)        0         
_________________________________________________________________
dropout_13 (Dropout)         (None, 23, 48, 64)        0         
_________________________________________________________________
conv2d_14 (Conv2D)           (None, 21, 46, 64)        36928     
_________________________________________________________________
max_pooling2d_14 (MaxPooling (None, 10, 23, 64)        0         
_________________________________________________________________
activation_22 (Activation)   (None, 10, 23, 64)        0         
_________________________________________________________________
dropout_14 (Dropout)         (None, 10, 23, 64)        0         
_________________________________________________________________
flatten_4 (Flatten)          (None, 14720)             0         
_________________________________________________________________
dense_8 (Dense)              (None, 128)               1884288   
_________________________________________________________________
activation_23 (Activation)   (None, 128)               0         
_________________________________________________________________
dense_9 (Dense)              (None, 1)                 129       
_________________________________________________________________
activation_24 (Activation)   (None, 1)                 0         
=================================================================
Total params: 1,940,161
Trainable params: 1,940,161
Non-trainable params: 0
_________________________________________________________________
accuracy: 48.90%









4. Banking sector of HSI, got some degree of accuracy 

Preparing training data...
3618.HK
0023.HK
1288.HK
0011.HK
1111.HK
0939.HK
2388.HK
2066.HK
3698.HK
2888.HK
…
4044/4044 [==============================] - 102s 25ms/sample - loss: 0.6443 - accuracy: 0.6355 - val_loss: 0.7217 - val_accuracy: 0.5287
Epoch 40/40
4044/4044 [==============================] - 105s 26ms/sample - loss: 0.6445 - accuracy: 0.6370 - val_loss: 0.7214 - val_accuracy: 0.5243
Preparing and testing system...
3968.HK
Nos. of train_data for ups: 121 and downs: 105
Model: "sequential"
_________________________________________________________________
Layer (type)                 Output Shape              Param #   
=================================================================
conv2d (Conv2D)              (None, 98, 198, 32)       320       
_________________________________________________________________
activation (Activation)      (None, 98, 198, 32)       0         
_________________________________________________________________
max_pooling2d (MaxPooling2D) (None, 49, 99, 32)        0         
_________________________________________________________________
dropout (Dropout)            (None, 49, 99, 32)        0         
_________________________________________________________________
conv2d_1 (Conv2D)            (None, 47, 97, 64)        18496     
_________________________________________________________________
max_pooling2d_1 (MaxPooling2 (None, 23, 48, 64)        0         
_________________________________________________________________
activation_1 (Activation)    (None, 23, 48, 64)        0         
_________________________________________________________________
dropout_1 (Dropout)          (None, 23, 48, 64)        0         
_________________________________________________________________
conv2d_2 (Conv2D)            (None, 21, 46, 128)       73856     
_________________________________________________________________
max_pooling2d_2 (MaxPooling2 (None, 10, 23, 128)       0         
_________________________________________________________________
activation_2 (Activation)    (None, 10, 23, 128)       0         
_________________________________________________________________
dropout_2 (Dropout)          (None, 10, 23, 128)       0         
_________________________________________________________________
flatten (Flatten)            (None, 29440)             0         
_________________________________________________________________
dense (Dense)                (None, 258)               7595778   
_________________________________________________________________
activation_3 (Activation)    (None, 258)               0         
_________________________________________________________________
dense_1 (Dense)              (None, 1)                 259       
_________________________________________________________________
activation_4 (Activation)    (None, 1)                 0         
=================================================================
Total params: 7,688,709
Trainable params: 7,688,709
Non-trainable params: 0
_________________________________________________________________
accuracy: 55.31%



















5. HK red chip (^HSCC)
surprisingly the test result is not accurate despite of the 53.52% of val acc, seems like a mirror

runfile('C:/Users/raymond-cy.liu/.spyder-py3/20191111 Building neutral nework/CNN chart/v1/CNN chart v1_4 (for red chip).py', wdir='C:/Users/raymond-cy.liu/.spyder-py3/20191111 Building neutral nework/CNN chart/v1')
…
