…
2466/2466 [==============================] - 130s 53ms/sample - loss: 0.6895 - accuracy: 0.5357 - val_loss: 0.6936 - val_accuracy: 0.5135
Epoch 50/50
2466/2466 [==============================] - 126s 51ms/sample - loss: 0.6900 - accuracy: 0.5349 - val_loss: 0.6938 - val_accuracy: 0.5101
Preparing and testing system...
6818.HK
Nos. of train_data for ups: 31 and downs: 48

Please input the file name of the test model
2020-01-07_2302--30-SEQ-5-PRED
Model: "sequential_1"
_________________________________________________________________
Layer (type)                 Output Shape              Param #   
=================================================================
conv2d_3 (Conv2D)            (None, 88, 178, 64)       640       
_________________________________________________________________
activation_5 (Activation)    (None, 88, 178, 64)       0         
_________________________________________________________________
max_pooling2d_3 (MaxPooling2 (None, 44, 89, 64)        0         
_________________________________________________________________
dropout_3 (Dropout)          (None, 44, 89, 64)        0         
_________________________________________________________________
conv2d_4 (Conv2D)            (None, 42, 87, 128)       73856     
_________________________________________________________________
max_pooling2d_4 (MaxPooling2 (None, 21, 43, 128)       0         
_________________________________________________________________
activation_6 (Activation)    (None, 21, 43, 128)       0         
_________________________________________________________________
dropout_4 (Dropout)          (None, 21, 43, 128)       0         
_________________________________________________________________
conv2d_5 (Conv2D)            (None, 19, 41, 256)       295168    
_________________________________________________________________
max_pooling2d_5 (MaxPooling2 (None, 9, 20, 256)        0         
_________________________________________________________________
activation_7 (Activation)    (None, 9, 20, 256)        0         
_________________________________________________________________
dropout_5 (Dropout)          (None, 9, 20, 256)        0         
_________________________________________________________________
flatten_1 (Flatten)          (None, 46080)             0         
_________________________________________________________________
dense_2 (Dense)              (None, 512)               23593472  
_________________________________________________________________
activation_8 (Activation)    (None, 512)               0         
_________________________________________________________________
dense_3 (Dense)              (None, 1)                 513       
_________________________________________________________________
activation_9 (Activation)    (None, 1)                 0         
=================================================================
Total params: 23,963,649
Trainable params: 23,963,649
Non-trainable params: 0
_________________________________________________________________
accuracy: 51.90%


---------------------------------------------------------------------------------------------------------------------------------------------------------------------------------------
…
